…
HoSQv5","colab":{"base_uri":"https://localhost:8080/"},"executionInfo":{"status":"ok","timestamp":1674818069673,"user_tz":-540,"elapsed":3312,"user":{"displayName":"이승재","userId":"05229376374116594418"}},"outputId":"c4d51a0b-1211-4e2b-a17b-bf9c85ffb1c5"},"execution_count":7,"outputs":[{"output_type":"stream","name":"stdout","text":["Model: \"sequential\"\n","_________________________________________________________________\n"," Layer (type)                Output Shape              Param #   \n","=================================================================\n"," conv2d (Conv2D)             (None, 32, 32, 6)         168       \n","                                                                 \n"," conv2d_1 (Conv2D)           (None, 32, 32, 16)        880       \n","                                                                 \n"," max_pooling2d (MaxPooling2D  (None, 16, 16, 16)       0         \n"," )                                                               \n","                                                                 \n"," conv2d_2 (Conv2D)           (None, 16, 16, 24)        3480      \n","                                                                 \n"," conv2d_3 (Conv2D)           (None, 16, 16, 48)        10416     \n","                                                                 \n"," max_pooling2d_1 (MaxPooling  (None, 8, 8, 48)         0         \n"," 2D)                                                             \n","                                                                 \n"," flatten (Flatten)           (None, 3072)              0         \n","                                                                 \n"," dense (Dense)               (None, 1024)              3146752   \n","                                                                 \n"," dense_1 (Dense)             (None, 10)                10250     \n","                                                                 \n","=================================================================\n","Total params: 3,171,946\n","Trainable params: 3,171,946\n","Non-trainable params: 0\n","_________________________________________________________________\n"]}]},{"cell_type":"code","source":["# training setup\n","from tensorflow.keras.optimizers impo
…
am","name":"stdout","text":["Model: \"resnet50\"\n","__________________________________________________________________________________________________\n"," Layer (type)                   Output Shape         Param #     Connected to                     \n","==================================================================================================\n"," input_1 (InputLayer)           [(None, 32, 32, 3)]  0           []                               \n","                                                                                                  \n"," conv1_pad (ZeroPadding2D)      (None, 38, 38, 3)    0           ['input_1[0][0]']                \n","                                                                                                  \n"," conv1_conv (Conv2D)            (None, 16, 16, 64)   9472        ['conv1_pad[0][0]']              \n","                                                                                                  \n"," conv1_bn (BatchNormalization)  (None, 16, 16, 64)   256         ['conv1_conv[0][0]']             \n","                                                                                                  \n"," conv1_relu (Activation)        (None, 16, 16, 64)   0           ['conv1_bn[0][0]']               \n","                                                                                                  \n"," pool1_pad (ZeroPadding2D)      (None, 18, 18, 64)   0           ['conv1_relu[0][0]']             \n","                                                                                                  \n"," pool1_pool (MaxPooling2D)      (None, 8, 8, 64)     0           ['pool1_pad[0][0]']              \n","                                                                                                  \n"," conv2_block1_1_conv (Conv2D)   (None, 8, 8, 64)     4160        ['pool1_pool[0][0]']             \n","                                                                                                  \n"," conv2_block1_1_bn (BatchNormal  (None, 8, 8, 64)    256         ['conv2_block1_1_conv[0][0]']    \n"," ization)                                                                                         \n","                                                                                                  \n"," conv2_block1_1_relu (Activatio  (None, 8, 8, 64)    0           ['conv2_block1_1_bn[0][0]']      \n"," n)                                                                                               \n","                                                                                                  \n"," conv2_block1_2_conv (Conv2D)   (None, 8, 8, 64)     36928       ['conv2_block1_1_relu[0][0]']    \n","                                                                                                  \n"," conv2_block1_2_bn (BatchNormal  (None, 8, 8, 64)    256         ['conv2_block1_2_conv[0][0]']    \n"," ization)                                                                                         \n","                                                                                                  \n"," conv2_block1_2_relu (Activatio  (None, 8, 8, 64)    0           ['conv2_block1_2_bn[0][0]']      \n"," n)                                                                                               \n","                                                                                                  \n"," conv2_block1_0_conv (Conv2D)   (None, 8, 8, 256)    16640       ['pool1_pool[0][0]']             \n","                                                                                                  \n"," conv2_block1_3_conv (Conv2D)   (None, 8, 8, 256)    16640       ['conv2_block1_2_relu[0][0]']    \n","                                                                                                  \n"," conv2_block1_0_bn (BatchNormal  (None, 8, 8, 256)   1024        ['conv2_block1_0_conv[0][0]']    \n"," ization)                                                                                         \n","                                                                                                  \n"," conv2_block1_3_bn (BatchNormal  (None, 8, 8, 256)   1024        ['conv2_block1_3_conv[0][0]']    \n"," ization)                                                                                         \n","                                                                                                  \n"," conv2_block1_add (Add)         (None, 8, 8, 256)    0           ['conv2_block1_0_bn[0][0]',      \n","                                                                  'conv2_block1_3_bn[0][0]']      \n","                                                                                                  \n"," conv2_block1_out (Activation)  (None, 8, 8, 256)    0           ['conv2_block1_add[0][0]']       \n","                                                                                                  \n"," conv2_block2_1_conv (Conv2D)   (None, 8, 8, 64)     16448       ['conv2_block1_out[0][0]']       \n","                                                                                                  \n"," conv2_block2_1_bn (BatchNormal  (None, 8, 8, 64)    256         ['conv2_block2_1_conv[0][0]']    \n"," ization)                                                                                         \n","                                                                                                  \n"," conv2_block2_1_relu (Activatio  (None, 8, 8, 64)    0           ['conv2_block2_1_bn[0][0]']      \n"," n)                                                                                               \n","                                                                                                  \n"," conv2_block2_2_conv (Conv2D)   (None, 8, 8, 64)     36928       ['conv2_block2_1_relu[0][0]']    \n","                                                                                                  \n"," conv2_block2_2_bn (BatchNormal  (None, 8, 8, 64)    256         ['conv2_block2_2_conv[0][0]']    \n"," ization)                                                                                         \n","                                                                                                  \n"," conv2_block2_2_relu (Activatio  (None, 8, 8, 64)    0           ['conv2_block2_2_bn[0][0]']      \n"," n)                                                                                               \n","                                                                                                  \n"," conv2_block2_3_conv (Conv2D)   (None, 8, 8, 256)    16640       ['conv2_block2_2_relu[0][0]']    \n","                                                                                                  \n"," conv2_block2_3_bn (BatchNormal  (None, 8, 8, 256)   1024        ['conv2_block2_3_conv[0][0]']    \n"," ization)                                                                                         \n","                                                                                                  \n"," conv2_block2_add (Add)         (None, 8, 8, 256)    0           ['conv2_block1_out[0][0]',       \n","                                                                  'conv2_block2_3_bn[0][0]']      \n","                                                                                                  \n"," conv2_block2_out (Activation)  (None, 8, 8, 256)    0           ['conv2_block2_add[0][0]']       \n","                                                                                                  \n"," conv2_block3_1_conv (Conv2D)   (None, 8, 8, 64)     16448       ['conv2_block2_out[0][0]']       \n","                                                                                                  \n"," conv2_block3_1_bn (BatchNormal  (None, 8, 8, 64)    256         ['conv2_block3_1_conv[0][0]']    \n"," ization)                                                                                         \n","                                                                                                  \n"," conv2_block3_1_relu (Activatio  (None, 8, 8, 64)    0           ['conv2_block3_1_bn[0][0]']      \n"," n)                                                                                               \n","                                                                                                  \n"," conv2_block3_2_conv (Conv2D)   (None, 8, 8, 64)     36928       ['conv2_block3_1_relu[0][0]']    \n","                                                                                                  \n"," conv2_block3_2_bn (BatchNormal  (None, 8, 8, 64)    256         ['conv2_block3_2_conv[0][0]']    \n"," ization)                                                                                         \n","                                                                                                  \n"," conv2_block3_2_relu (Activatio  (None, 8, 8, 64)    0           ['conv2_block3_2_bn[0][0]']      \n"," n)                                                                                               \n","                                                                                                  \n"," conv2_block3_3_conv (Conv2D)   (None, 8, 8, 256)    16640       ['conv2_block3_2_relu[0][0]']    \n","                                                                                                  \n"," conv2_block3_3_bn (BatchNormal  (None, 8, 8, 256)   1024        ['conv2_block3_3_conv[0][0]']    \n"," ization)                                                                                         \n","                                                                                                  \n"," conv2_block3_add (Add)         (None, 8, 8, 256)    0           ['conv2_block2_out[0][0]',       \n","                                                                  'conv2_block3_3_bn[0][0]']      \n","                                                                                                  \n"," conv2_block3_out (Activation)  (None, 8, 8, 256)    0           ['conv2_block3_add[0][0]']       \n","                                                                                                  \n"," conv3_block1_1_conv (Conv2D)   (None, 4, 4, 128)    32896       ['conv2_block3_out[0][0]']       \n","                                                                                                  \n"," conv3_block1_1_bn (BatchNormal  (None, 4, 4, 128)   512         ['conv3_block1_1_conv[0][0]']    \n"," ization)                                                                                         \n","                                                                                                  \n"," conv3_block1_1_relu (Activatio  (None, 4, 4, 128)   0           ['conv3_block1_1_bn[0][0]']      \n"," n)                                                                                               \n","                                                                                                  \n"," conv3_block1_2_conv (Conv2D)   (None, 4, 4, 128)    147584      ['conv3_block1_1_relu[0][0]']    \n","                                                                                                  \n"," conv3_block1_2_bn (BatchNormal  (None, 4, 4, 128)   512         ['conv3_block1_2_conv[0][0]']    \n"," ization)                                                                                         \n","                                                                                                  \n"," conv3_block1_2_relu (Activatio  (None, 4, 4, 128)   0           ['conv3_block1_2_bn[0][0]']      \n"," n)                                                                                               \n","                                                                                                  \n"," conv3_block1_0_conv (Conv2D)   (None, 4, 4, 512)    131584      ['conv2_block3_out[0][0]']       \n","                                                                                                  \n"," conv3_block1_3_conv (Conv2D)   (None, 4, 4, 512)    66048       ['conv3_block1_2_relu[0][0]']    \n","                                                                                                  \n"," conv3_block1_0_bn (BatchNormal  (None, 4, 4, 512)   2048        ['conv3_block1_0_conv[0][0]']    \n"," ization)                                                                                         \n","                                                                                                  \n"," conv3_block1_3_bn (BatchNormal  (None, 4, 4, 512)   2048        ['conv3_block1_3_conv[0][0]']    \n"," ization)                                                                                         \n","                                                                                                  \n"," conv3_block1_add (Add)         (None, 4, 4, 512)    0           ['conv3_block1_0_bn[0][0]',      \n","                                                                  'conv3_block1_3_bn[0][0]']      \n","                                                                                                  \n"," conv3_block1_out (Activation)  (None, 4, 4, 512)    0           ['conv3_block1_add[0][0]']       \n","                                                                                                  \n"," conv3_block2_1_conv (Conv2D)   (None, 4, 4, 128)    65664       ['conv3_block1_out[0][0]']       \n","                                                                                                  \n"," conv3_block2_1_bn (BatchNormal  (None, 4, 4, 128)   512         ['conv3_block2_1_conv[0][0]']    \n"," ization)                                                                                         \n","                                                                                                  \n"," conv3_block2_1_relu (Activatio  (None, 4, 4, 128)   0           ['conv3_block2_1_bn[0][0]']      \n"," n)                                                                                               \n","                                                                                                  \n"," conv3_block2_2_conv (Conv2D)   (None, 4, 4, 128)    147584      ['conv3_block2_1_relu[0][0]']    \n","                                                                                                  \n"," conv3_block2_2_bn (BatchNormal  (None, 4, 4, 128)   512         ['conv3_block2_2_conv[0][0]']    \n"," ization)                                                                                         \n","                                                                                                  \n"," conv3_block2_2_relu (Activatio  (None, 4, 4, 128)   0           ['conv3_block2_2_bn[0][0]']      \n"," n)                                                                                               \n","                                                                                                  \n"," conv3_block2_3_conv (Conv2D)   (None, 4, 4, 512)    66048       ['conv3_block2_2_relu[0][0]']    \n","                                                                                                  \n"," conv3_block2_3_bn (BatchNormal  (None, 4, 4, 512)   2048        ['conv3_block2_3_conv[0][0]']    \n"," ization)                                                                                         \n","                                                                                                  \n"," conv3_block2_add (Add)         (None, 4, 4, 512)    0           ['conv3_block1_out[0][0]',       \n","                                                                  'conv3_block2_3_bn[0][0]']      \n","                                                                                                  \n"," conv3_block2_out (Activation)  (None, 4, 4, 512)    0           ['conv3_block2_add[0][0]']       \n","                                                                                                  \n"," conv3_block3_1_conv (Conv2D)   (None, 4, 4, 128)    65664       ['conv3_block2_out[0][0]']       \n","                                                                                                  \n"," conv3_block3_1_bn (BatchNormal  (None, 4, 4, 128)   512         ['conv3_block3_1_conv[0][0]']    \n"," ization)                                                                                         \n","                                                                                                  \n"," conv3_block3_1_relu (Activatio  (None, 4, 4, 128)   0           ['conv3_block3_1_bn[0][0]']      \n"," n)                                                                                               \n","                                                                                                  \n"," conv3_block3_2_conv (Conv2D)   (None, 4, 4, 128)    147584      ['conv3_block3_1_relu[0][0]']    \n","                                                                                                  \n"," conv3_block3_2_bn (BatchNormal  (None, 4, 4, 128)   512         ['conv3_block3_2_conv[0][0]']    \n"," ization)                                                                                         \n","                                                                                                  \n"," conv3_block3_2_relu (Activatio  (None, 4, 4, 128)   0           ['conv3_block3_2_bn[0][0]']      \n"," n)                                                                                               \n","                                                                                                  \n"," conv3_block3_3_conv (Conv2D)   (None, 4, 4, 512)    66048       ['conv3_block3_2_relu[0][0]']    \n","                                                                                                  \n"," conv3_block3_3_bn (BatchNormal  (None, 4, 4, 512)   2048        ['conv3_block3_3_conv[0][0]']    \n"," ization)                                                                                         \n","                                                                                                  \n"," conv3_block3_add (Add)         (None, 4, 4, 512)    0           ['conv3_block2_out[0][0]',       \n","                                                                  'conv3_block3_3_bn[0][0]']      \n","                                                                                                  \n"," conv3_block3_out (Activation)  (None, 4, 4, 512)    0           ['conv3_block3_add[0][0]']       \n","                                                                                                  \n"," conv3_block4_1_conv (Conv2D)   (None, 4, 4, 128)    65664       ['conv3_block3_out[0][0]']       \n","                                                                                                  \n"," conv3_block4_1_bn (BatchNormal  (None, 4, 4, 128)   512         ['conv3_block4_1_conv[0][0]']    \n"," ization)                                                                                         \n","                                                                                                  \n"," conv3_block4_1_relu (Activatio  (None, 4, 4, 128)   0           ['conv3_block4_1_bn[0][0]']      \n"," n)                                                                                               \n","                                                                                                  \n"," conv3_block4_2_conv (Conv2D)   (None, 4, 4, 128)    147584      ['conv3_block4_1_relu[0][0]']    \n","                                                                                                  \n"," conv3_block4_2_bn (BatchNormal  (None, 4, 4, 128)   512         ['conv3_block4_2_conv[0][0]']    \n"," ization)                                                                                         \n","                                                                                                  \n"," conv3_block4_2_relu (Activatio  (None, 4, 4, 128)   0           ['conv3_block4_2_bn[0][0]']      \n"," n)                                                                                               \n","                                                                                                  \n"," conv3_block4_3_conv (Conv2D)   (None, 4, 4, 512)    66048       ['conv3_block4_2_relu[0][0]']    \n","                                                                                                  \n"," conv3_block4_3_bn (BatchNormal  (None, 4, 4, 512)   2048        ['conv3_block4_3_conv[0][0]']    \n"," ization)                                                                                         \n","                                                                                                  \n"," conv3_block4_add (Add)         (None, 4, 4, 512)    0           ['conv3_block3_out[0][0]',       \n","                                                                  'conv3_block4_3_bn[0][0]']      \n","                                                                                                  \n"," conv3_block4_out (Activation)  (None, 4, 4, 512)    0           ['conv3_block4_add[0][0]']       \n","                                                                                                  \n"," conv4_block1_1_conv (Conv2D)   (None, 2, 2, 256)    131328      ['conv3_block4_out[0][0]']       \n","                                                                                                  \n"," conv4_block1_1_bn (BatchNormal  (None, 2, 2, 256)   1024        ['conv4_block1_1_conv[0][0]']    \n"," ization)                                                                                         \n","                                                                                                  \n"," conv4_block1_1_relu (Activatio  (None, 2, 2, 256)   0           ['conv4_block1_1_bn[0][0]']      \n"," n)                                                                                               \n","                                                                                                  \n"," conv4_block1_2_conv (Conv2D)   (None, 2, 2, 256)    590080      ['conv4_block1_1_relu[0][0]']    \n","                                                                                                  \n"," conv4_block1_2_bn (BatchNormal  (None, 2, 2, 256)   1024        ['conv4_block1_2_conv[0][0]']    \n"," ization)                                                                                         \n","                                                                                                  \n"," conv4_block1_2_relu (Activatio  (None, 2, 2, 256)   0           ['conv4_block1_2_bn[0][0]']      \n"," n)                                                                                               \n","                                                                                                  \n"," conv4_block1_0_conv (Conv2D)   (None, 2, 2, 1024)   525312      ['conv3_block4_out[0][0]']       \n","                                                                                                  \n"," conv4_block1_3_conv (Conv2D)   (None, 2, 2, 1024)   263168      ['conv4_block1_2_relu[0][0]']    \n","                                                                                                  \n"," conv4_block1_0_bn (BatchNormal  (None, 2, 2, 1024)  4096        ['conv4_block1_0_conv[0][0]']    \n"," ization)                                                                                         \n","                                                                                                  \n"," conv4_block1_3_bn (BatchNormal  (None, 2, 2, 1024)  4096        ['conv4_block1_3_conv[0][0]']    \n"," ization)                                                                                         \n","                                                                                                  \n"," conv4_block1_add (Add)         (None, 2, 2, 1024)   0           ['conv4_block1_0_bn[0][0]',      \n","                                                                  'conv4_block1_3_bn[0][0]']      \n","                                                                                                  \n"," conv4_block1_out (Activation)  (None, 2, 2, 1024)   0           ['conv4_block1_add[0][0]']       \n","                                                                                                  \n"," conv4_block2_1_conv (Conv2D)   (None, 2, 2, 256)    262400      ['conv4_block1_out[0][0]']       \n","                                                                                                  \n"," conv4_block2_1_bn (BatchNormal  (None, 2, 2, 256)   1024        ['conv4_block2_1_conv[0][0]']    \n"," ization)                                                                                         \n","                                                                                                  \n"," conv4_block2_1_relu (Activatio  (None, 2, 2, 256)   0           ['conv4_block2_1_bn[0][0]']      \n"," n)                                                                                               \n","                                                                                                  \n"," conv4_block2_2_conv (Conv2D)   (None, 2, 2, 256)    590080      ['conv4_block2_1_relu[0][0]']    \n","                                                                                                  \n"," conv4_block2_2_bn (BatchNormal  (None, 2, 2, 256)   1024        ['conv4_block2_2_conv[0][0]']    \n"," ization)                                                                                         \n","                                                                                                  \n"," conv4_block2_2_relu (Activatio  (None, 2, 2, 256)   0           ['conv4_block2_2_bn[0][0]']      \n"," n)                                                                                               \n","                                                                                                  \n"," conv4_block2_3_conv (Conv2D)   (None, 2, 2, 1024)   263168      ['conv4_block2_2_relu[0][0]']    \n","                                                                                                  \n"," conv4_block2_3_bn (BatchNormal  (None, 2, 2, 1024)  4096        ['conv4_block2_3_conv[0][0]']    \n"," ization)                                                                                         \n","                                                                                                  \n"," conv4_block2_add (Add)         (None, 2, 2, 1024)   0           ['conv4_block1_out[0][0]',       \n","                                                                  'conv4_block2_3_bn[0][0]']      \n","                                                                                                  \n"," conv4_block2_out (Activation)  (None, 2, 2, 1024)   0           ['conv4_block2_add[0][0]']       \n","                                                                                                  \n"," conv4_block3_1_conv (Conv2D)   (None, 2, 2, 256)    262400      ['conv4_block2_out[0][0]']       \n","                                                                                                  \n"," conv4_block3_1_bn (BatchNormal  (None, 2, 2, 256)   1024        ['conv4_block3_1_conv[0][0]']    \n"," ization)                                                                                         \n","                                                                                                  \n"," conv4_block3_1_relu (Activatio  (None, 2, 2, 256)   0           ['conv4_block3_1_bn[0][0]']      \n"," n)                                                                                               \n","                                                                                                  \n"," conv4_block3_2_conv (Conv2D)   (None, 2, 2, 256)    590080      ['conv4_block3_1_relu[0][0]']    \n","                                                                                                  \n"," conv4_block3_2_bn (BatchNormal  (None, 2, 2, 256)   1024        ['conv4_block3_2_conv[0][0]']    \n"," ization)                                                                                         \n","                                                                                                  \n"," conv4_block3_2_relu (Activatio  (None, 2, 2, 256)   0           ['conv4_block3_2_bn[0][0]']      \n"," n)                                                                                               \n","                                                                                                  \n"," conv4_block3_3_conv (Conv2D)   (None, 2, 2, 1024)   263168      ['conv4_block3_2_relu[0][0]']    \n","                                                                                                  \n"," conv4_block3_3_bn (BatchNormal  (None, 2, 2, 1024)  4096        ['conv4_block3_3_conv[0][0]']    \n"," ization)                                                                                         \n","                                                                                                  \n"," conv4_block3_add (Add)         (None, 2, 2, 1024)   0           ['conv4_block2_out[0][0]',       \n","                                                                  'conv4_block3_3_bn[0][0]']      \n","                                                                                                  \n"," conv4_block3_out (Activation)  (None, 2, 2, 1024)   0           ['conv4_block3_add[0][0]']       \n","                                                                                                  \n"," conv4_block4_1_conv (Conv2D)   (None, 2, 2, 256)    262400      ['conv4_block3_out[0][0]']       \n","                                                                                                  \n"," conv4_block4_1_bn (BatchNormal  (None, 2, 2, 256)   1024        ['conv4_block4_1_conv[0][0]']    \n"," ization)                                                                                         \n","                                                                                                  \n"," conv4_block4_1_relu (Activatio  (None, 2, 2, 256)   0           ['conv4_block4_1_bn[0][0]']      \n"," n)                                                                                               \n","                                                                                                  \n"," conv4_block4_2_conv (Conv2D)   (None, 2, 2, 256)    590080      ['conv4_block4_1_relu[0][0]']    \n","                                                                                                  \n"," conv4_block4_2_bn (BatchNormal  (None, 2, 2, 256)   1024        ['conv4_block4_2_conv[0][0]']    \n"," ization)                                                                                         \n","                                                                                                  \n"," conv4_block4_2_relu (Activatio  (None, 2, 2, 256)   0           ['conv4_block4_2_bn[0][0]']      \n"," n)                                                                                               \n","                                                                                                  \n"," conv4_block4_3_conv (Conv2D)   (None, 2, 2, 1024)   263168      ['conv4_block4_2_relu[0][0]']    \n","                                                                                                  \n"," conv4_block4_3_bn (BatchNormal  (None, 2, 2, 1024)  4096        ['conv4_block4_3_conv[0][0]']    \n"," ization)                                                                                         \n","                                                                                                  \n"," conv4_block4_add (Add)         (None, 2, 2, 1024)   0           ['conv4_block3_out[0][0]',       \n","                                                                  'conv4_block4_3_bn[0][0]']      \n","                                                                                                  \n"," conv4_block4_out (Activation)  (None, 2, 2, 1024)   0           ['conv4_block4_add[0][0]']       \n","                                                                                                  \n"," conv4_block5_1_conv (Conv2D)   (None, 2, 2, 256)    262400      ['conv4_block4_out[0][0]']       \n","                                                                                                  \n"," conv4_block5_1_bn (BatchNormal  (None, 2, 2, 256)   1024        ['conv4_block5_1_conv[0][0]']    \n"," ization)                                                                                         \n","                                                                                                  \n"," conv4_block5_1_relu (Activatio  (None, 2, 2, 256)   0           ['conv4_block5_1_bn[0][0]']      \n"," n)                                                                                               \n","                                                                                                  \n"," conv4_block5_2_conv (Conv2D)   (None, 2, 2, 256)    590080      ['conv4_block5_1_relu[0][0]']    \n","                                                                                                  \n"," conv4_block5_2_bn (BatchNormal  (None, 2, 2, 256)   1024        ['conv4_block5_2_conv[0][0]']    \n"," ization)                                                                                         \n","                                                                                                  \n"," conv4_block5_2_relu (Activatio  (None, 2, 2, 256)   0           ['conv4_block5_2_bn[0][0]']      \n"," n)                                                                                               \n","                                                                                                  \n"," conv4_block5_3_conv (Conv2D)   (None, 2, 2, 1024)   263168      ['conv4_block5_2_relu[0][0]']    \n","                                                                                                  \n"," conv4_block5_3_bn (BatchNormal  (None, 2, 2, 1024)  4096        ['conv4_block5_3_conv[0][0]']    \n"," ization)                                                                                         \n","                                                                                                  \n"," conv4_block5_add (Add)         (None, 2, 2, 1024)   0           ['conv4_block4_out[0][0]',       \n","                                                                  'conv4_block5_3_bn[0][0]']      \n","                                                                                                  \n"," conv4_block5_out (Activation)  (None, 2, 2, 1024)   0           ['conv4_block5_add[0][0]']       \n","                                                                                                  \n"," conv4_block6_1_conv (Conv2D)   (None, 2, 2, 256)    262400      ['conv4_block5_out[0][0]']       \n","                                                                                                  \n"," conv4_block6_1_bn (BatchNormal  (None, 2, 2, 256)   1024        ['conv4_block6_1_conv[0][0]']    \n"," ization)                                                                                         \n","                                                                                                  \n"," conv4_block6_1_relu (Activatio  (None, 2, 2, 256)   0           ['conv4_block6_1_bn[0][0]']      \n"," n)                                                                                               \n","                                                                                                  \n"," conv4_block6_2_conv (Conv2D)   (None, 2, 2, 256)    590080      ['conv4_block6_1_relu[0][0]']    \n","                                                                                                  \n"," conv4_block6_2_bn (BatchNormal  (None, 2, 2, 256)   1024        ['conv4_block6_2_conv[0][0]']    \n"," ization)                                                                                         \n","                                                                                                  \n"," conv4_block6_2_relu (Activatio  (None, 2, 2, 256)   0           ['conv4_block6_2_bn[0][0]']      \n"," n)                                                                                               \n","                                                                                                  \n"," conv4_block6_3_conv (Conv2D)   (None, 2, 2, 1024)   263168      ['conv4_block6_2_relu[0][0]']    \n","                                                                                                  \n"," conv4_block6_3_bn (BatchNormal  (None, 2, 2, 1024)  4096        ['conv4_block6_3_conv[0][0]']    \n"," ization)                                                                                         \n","                                                                                                  \n"," conv4_block6_add (Add)         (None, 2, 2, 1024)   0           ['conv4_block5_out[0][0]',       \n","                                                                  'conv4_block6_3_bn[0][0]']      \n","                                                                                                  \n"," conv4_block6_out (Activation)  (None, 2, 2, 1024)   0           ['conv4_block6_add[0][0]']       \n","                                                                                                  \n"," conv5_block1_1_conv (Conv2D)   (None, 1, 1, 512)    524800      ['conv4_block6_out[0][0]']       \n","                                                                                                  \n"," conv5_block1_1_bn (BatchNormal  (None, 1, 1, 512)   2048        ['conv5_block1_1_conv[0][0]']    \n"," ization)                                                                                         \n","                                                                                                  \n"," conv5_block1_1_relu (Activatio  (None, 1, 1, 512)   0           ['conv5_block1_1_bn[0][0]']      \n"," n)                                                                                               \n","                                                                                                  \n"," conv5_block1_2_conv (Conv2D)   (None, 1, 1, 512)    2359808     ['conv5_block1_1_relu[0][0]']    \n","                                                                                                  \n"," conv5_block1_2_bn (BatchNormal  (None, 1, 1, 512)   2048        ['conv5_block1_2_conv[0][0]']    \n"," ization)                                                                                         \n","                                                                                                  \n"," conv5_block1_2_relu (Activatio  (None, 1, 1, 512)   0           ['conv5_block1_2_bn[0][0]']      \n"," n)                                                                                               \n","                                                                                                  \n"," conv5_block1_0_conv (Conv2D)   (None, 1, 1, 2048)   2099200     ['conv4_block6_out[0][0]']       \n","                                                                                                  \n"," conv5_block1_3_conv (Conv2D)   (None, 1, 1, 2048)   1050624     ['conv5_block1_2_relu[0][0]']    \n","                                                                                                  \n"," conv5_block1_0_bn (BatchNormal  (None, 1, 1, 2048)  8192        ['conv5_block1_0_conv[0][0]']    \n"," ization)                                                                                         \n","                                                                                                  \n"," conv5_block1_3_bn (BatchNormal  (None, 1, 1, 2048)  8192        ['conv5_block1_3_conv[0][0]']    \n"," ization)                                                                                         \n","                                                                                                  \n"," conv5_block1_add (Add)         (None, 1, 1, 2048)   0           ['conv5_block1_0_bn[0][0]',      \n","                                                                  'conv5_block1_3_bn[0][0]']      \n","                                                                                                  \n"," conv5_block1_out (Activation)  (None, 1, 1, 2048)   0           ['conv5_block1_add[0][0]']       \n","                                                                                                  \n"," conv5_block2_1_conv (Conv2D)   (None, 1, 1, 512)    1049088     ['conv5_block1_out[0][0]']       \n","                                                                                                  \n"," conv5_block2_1_bn (BatchNormal  (None, 1, 1, 512)   2048        ['conv5_block2_1_conv[0][0]']    \n"," ization)                                                                                         \n","                                                                                                  \n"," conv5_block2_1_relu (Activatio  (None, 1, 1, 512)   0           ['conv5_block2_1_bn[0][0]']      \n"," n)                                                                                               \n","                                                                                                  \n"," conv5_block2_2_conv (Conv2D)   (None, 1, 1, 512)    2359808     ['conv5_block2_1_relu[0][0]']    \n","                                                                                                  \n"," conv5_block2_2_bn (BatchNormal  (None, 1, 1, 512)   2048        ['conv5_block2_2_conv[0][0]']    \n"," ization)                                                                                         \n","                                                                                                  \n"," conv5_block2_2_relu (Activatio  (None, 1, 1, 512)   0           ['conv5_block2_2_bn[0][0]']      \n"," n)                                                                                               \n","                                                                                                  \n"," conv5_block2_3_conv (Conv2D)   (None, 1, 1, 2048)   1050624     ['conv5_block2_2_relu[0][0]']    \n","                                                                                                  \n"," conv5_block2_3_bn (BatchNormal  (None, 1, 1, 2048)  8192        ['conv5_block2_3_conv[0][0]']    \n"," ization)                                                                                         \n","                                                                                                  \n"," conv5_block2_add (Add)         (None, 1, 1, 2048)   0           ['conv5_block1_out[0][0]',       \n","                                                                  'conv5_block2_3_bn[0][0]']      \n","                                                                                                  \n"," conv5_block2_out (Activation)  (None, 1, 1, 2048)   0           ['conv5_block2_add[0][0]']       \n","                                                                                                  \n"," conv5_block3_1_conv (Conv2D)   (None, 1, 1, 512)    1049088     ['conv5_block2_out[0][0]']       \n","                                                                                                  \n"," conv5_block3_1_bn (BatchNormal  (None, 1, 1, 512)   2048        ['conv5_block3_1_conv[0][0]']    \n"," ization)                                                                                         \n","                                                                                                  \n"," conv5_block3_1_relu (Activatio  (None, 1, 1, 512)   0           ['conv5_block3_1_bn[0][0]']      \n"," n)                                                                                               \n","                                                                                                  \n"," conv5_block3_2_conv (Conv2D)   (None, 1, 1, 512)    2359808     ['conv5_block3_1_relu[0][0]']    \n","                                                                                                  \n"," conv5_block3_2_bn (BatchNormal  (None, 1, 1, 512)   2048        ['conv5_block3_2_conv[0][0]']    \n"," ization)                                                                                         \n","                                                                                                  \n"," conv5_block3_2_relu (Activatio  (None, 1, 1, 512)   0           ['conv5_block3_2_bn[0][0]']      \n"," n)                                                                                               \n","                                                                                                  \n"," conv5_block3_3_conv (Conv2D)   (None, 1, 1, 2048)   1050624     ['conv5_block3_2_relu[0][0]']    \n","                                                                                                  \n"," conv5_block3_3_bn (BatchNormal  (None, 1, 1, 2048)  8192        ['conv5_block3_3_conv[0][0]']    \n"," ization)                                                                                         \n","                                                                                                  \n"," conv5_block3_add (Add)         (None, 1, 1, 2048)   0           ['conv5_block2_out[0][0]',       \n","                                                                  'conv5_block3_3_bn[0][0]']      \n","                                                                                                  \n"," conv5_block3_out (Activation)  (None, 1, 1, 2048)   0           ['conv5_block3_add[0][0]']       \n","                                                                                                  \n"," avg_pool (GlobalAveragePooling  (None, 2048)        0           ['conv5_block3_out[0][0]']       \n"," 2D)                                                                                              \n","                                                                                                  \n"," predictions (Dense)            (None, 10)           20490       ['avg_pool[0][0]']               \n","                                                                                                  \n","==================================================================================================\n","Total params: 23,608,202\n","Trainable params: 23,555,082\n","Non-trainable params: 53,120\n","______________________________________________________
…
